…
          "base_uri": "https://localhost:8080/"
        },
        "id": "Mx6LEnCXr9-c",
        "outputId": "e5fb8877-f704-4856-e3c7-0983fbb6c7cb"
      },
      "outputs": [
        {
          "output_type": "stream",
          "name": "stdout",
          "text": [
            "Model: \"sequential_3\"\n",
            "_________________________________________________________________\n",
            " Layer (type)                Output Shape              Param #   \n",
            "=================================================================\n",
            " conv2d_12 (Conv2D)          (None, 222, 222, 32)      896       \n",
            "                                                                 \n",
            " max_pooling2d_12 (MaxPoolin  (None, 111, 111, 32)     0         \n",
            " g2D)                                                            \n",
            "                                                                 \n",
            " conv2d_13 (Conv2D)          (None, 109, 109, 32)      9248      \n",
            "                                                                 \n",
            " max_pooling2d_13 (MaxPoolin  (None, 54, 54, 32)       0         \n",
            " g2D)                                                            \n",
            "                                                                 \n",
            " conv2d_14 (Conv2D)          (None, 52, 52, 32)        9248      \n",
            "                                                                 \n",
            " max_pooling2d_14 (MaxPoolin  (None, 26, 26, 32)       0         \n",
            " g2D)                                                            \n",
            "                                                                 \n",
            " conv2d_15 (Conv2D)          (None, 24, 24, 64)        18496     \n",
            "                                                                 \n",
            " max_pooling2d_15 (MaxPoolin  (None, 12, 12, 64)       0         \n",
            " g2D)                                                            \n",
            "                                                                 \n",
            " flatten_3 (Flatten)         (None, 9216)              0         \n",
            "                                                                 \n",
            " dropout_3 (Dropout)         (None, 9216)              0         \n",
            "                                                                 \n",
            " dense_6 (Dense)             (None, 128)               1179776   \n",
            "                                                                 \n",
            " dense_7 (Dense)             (None, 6)                 774       \n",
            "                                                                 \n",
            "=================================================================\n",
            "Total params: 1,218,438\n",
            "Trainable params: 1,218,438\n",
            "Non-trainable params: 0\n",
            "_________________________________________________________________\n"
          ]
        }
…
